ST Edge AI Core v4.0.0-20500 359356bb0
Created date          : 2026-06-01 19:16:44
Parameters            : analyze --model C:\Univpm\Secondo Anno Magistrale\Sistemi operativi dedicati\handGesture\cfs-model\mobilenet_rock_paper_scissors_int8.tflite --batch-size 10 --mode target --name network --verbosity 1 --c-api st-ai --input-data-type uint8 --output-data-type float32 --allocate-activations --allocate-states --optimization ram --target stm32h7 --workspace C:\Users\eeebr\.stm32cubeaistudio\workspace\CartaForbiciSassoGame\.ai\run\run-4\.ai\st_ai_ws --output C:\Users\eeebr\.stm32cubeaistudio\workspace\CartaForbiciSassoGame\.ai\run\run-4\.ai\st_ai_output --memory-pool C:\Users\eeebr\.stm32cubeaistudio\workspace\CartaForbiciSassoGame\.ai\run\run-4\.ai\mempools.json

Exec/report summary (analyze)
------------------------------------------------------------------------------------------------------------------------------------------------------
model file         :   C:\Univpm\Secondo Anno Magistrale\Sistemi operativi dedicati\handGesture\cfs-model\mobilenet_rock_paper_scissors_int8.tflite   
type               :   tflite                                                                                                                         
c_name             :   network                                                                                                                        
compression        :   lossless                                                                                                                       
options            :   allocate-inputs, allocate-outputs, multi-heaps, use-lite-runtime, use-st-ai                                                    
optimization       :   ram                                                                                                                            
target/series      :   stm32h7                                                                                                                        
memory pool        :   C:\Users\eeebr\.stm32cubeaistudio\workspace\CartaForbiciSassoGame\.ai\run\run-4\.ai\mempools.json                              
workspace dir      :   C:\Users\eeebr\.stm32cubeaistudio\workspace\CartaForbiciSassoGame\.ai\run\run-4\.ai\st_ai_ws                                   
output dir         :   C:\Users\eeebr\.stm32cubeaistudio\workspace\CartaForbiciSassoGame\.ai\run\run-4\.ai\st_ai_output                               
model_fmt          :   sa/ua per tensor                                                                                                               
model_name         :   mobilenet_rock_paper_scissors_int8                                                                                             
model_hash         :   0x9bab4f2918ec644103bee84b1c013277                                                                                             
params #           :   392,937 items (404.37 KiB)                                                                                                     
------------------------------------------------------------------------------------------------------------------------------------------------------
input 1/1          :   'serving_default_input_layer_50', uint8(1x128x128x1), 16.00 KBytes, QLinear(0.999959767,0,uint8), activations                  
output 1/1         :   'conversion_66', f32(1x3), 12 Bytes, activations                                                                               
macc               :   19,080,889                                                                                                                     
weights (ro)       :   414,076 B (404.37 KiB) (1 segment) / -1,157,672(-73.7%) vs float model                                                         
activations (rw)   :   230,116 B (224.72 KiB) (2 segments) *                                                                                          
ram (total)        :   230,116 B (224.72 KiB) = 230,116 + 0 + 0                                                                                       
------------------------------------------------------------------------------------------------------------------------------------------------------
(*) 'input'/'output' buffers are allocated in the activations buffer
 
 Memory-pools summary (activations/ domain)
 --------------- -------- -------------------------- --------- 
 name            id       used                       buffer#   
 --------------- -------- -------------------------- --------- 
 DTCMRAM         0        740 B (0.6%)               9         
 RAM_D1          1        224.00 KiB (43.8%)         115       
 ITCMRAM         unused   -                          0         
 weights_array   3        404.37 KiB (41407600.0%)   108       
 --------------- -------- -------------------------- --------- 
 Warning: ['ITCMRAM'] memory pool is not used

Model name - mobilenet_rock_paper_scissors_int8
------ -------------------------------------------- ----------------------- ----------------- ----------- -------------------------------- --- -------------- ------------------- --------------------------- 
m_id   layer (type,original)                        oshape                  param/size               macc                     connected to   | c_size         c_macc              c_type                      
------ -------------------------------------------- ----------------------- ----------------- ----------- -------------------------------- --- -------------- ------------------- --------------------------- 
0      serving_default_input_layer_50 (Input, )     [b:1,h:128,w:128,c:1]                                                                    | +15(+100.0%)   +81,923(+100.0%)    Conversion_/Conv2D_[0, 1]   
       conv2d_0 (Conv2D, CONV_2D)                   [b:1,h:128,w:128,c:3]   6/15                   49,155   serving_default_input_layer_50   | -15(-100.0%)   -49,155(-100.0%)    
------ -------------------------------------------- ----------------------- ----------------- ----------- -------------------------------- --- -------------- ------------------- --------------------------- 
1      conv2d_1 (Conv2D, CONV_2D)                   [b:1,h:64,w:64,c:16]    448/496             1,769,488                         conv2d_0   |                                    Conv2D_[2]                  
       nl_1_nl (Nonlinearity, CONV_2D)              [b:1,h:64,w:64,c:16]                           65,536                         conv2d_1   |                -65,536(-100.0%)    
------ -------------------------------------------- ----------------------- ----------------- ----------- -------------------------------- --- -------------- ------------------- --------------------------- 
2      conv2d_2 (Conv2D, DEPTHWISE_CONV_2D)         [b:1,h:64,w:64,c:16]    160/208               589,840                          nl_1_nl   |                                    Conv2D_[3]                  
       nl_2_nl (Nonlinearity, DEPTHWISE_CONV_2D)    [b:1,h:64,w:64,c:16]                           65,536                         conv2d_2   |                -65,536(-100.0%)    
------ -------------------------------------------- ----------------------- ----------------- ----------- -------------------------------- --- -------------- ------------------- --------------------------- 
3      conv2d_3 (Conv2D, CONV_2D)                   [b:1,h:64,w:64,c:8]     136/160               524,296                          nl_2_nl   |                                    Conv2D_[4]                  
------ -------------------------------------------- ----------------------- ----------------- ----------- -------------------------------- --- -------------- ------------------- --------------------------- 
4      conv2d_4 (Conv2D, CONV_2D)                   [b:1,h:64,w:64,c:48]    432/576             1,572,912                         conv2d_3   |                                    Conv2D_[5]                  
       nl_4_nl (Nonlinearity, CONV_2D)              [b:1,h:64,w:64,c:48]                          196,608                         conv2d_4   |                -196,608(-100.0%)   
------ -------------------------------------------- ----------------------- ----------------- ----------- -------------------------------- --- -------------- ------------------- --------------------------- 
5      conv2d_5 (Conv2D, DEPTHWISE_CONV_2D)         [b:1,h:32,w:32,c:48]    480/624               442,416                          nl_4_nl   |                                    Conv2D_[6]                  
       nl_5_nl (Nonlinearity, DEPTHWISE_CONV_2D)    [b:1,h:32,w:32,c:48]                           49,152                         conv2d_5   |                -49,152(-100.0%)    
------ -------------------------------------------- ----------------------- ----------------- ----------- -------------------------------- --- -------------- ------------------- --------------------------- 
6      conv2d_6 (Conv2D, CONV_2D)                   [b:1,h:32,w:32,c:8]     392/416               393,224                          nl_5_nl   |                                    Conv2D_[7]                  
------ -------------------------------------------- ----------------------- ----------------- ----------- -------------------------------- --- -------------- ------------------- --------------------------- 
7      conv2d_7 (Conv2D, CONV_2D)                   [b:1,h:32,w:32,c:48]    432/576               393,264                         conv2d_6   |                                    Conv2D_[8]                  
       nl_7_nl (Nonlinearity, CONV_2D)              [b:1,h:32,w:32,c:48]                           49,152                         conv2d_7   |                -49,152(-100.0%)    
------ -------------------------------------------- ----------------------- ----------------- ----------- -------------------------------- --- -------------- ------------------- --------------------------- 
8      conv2d_8 (Conv2D, DEPTHWISE_CONV_2D)         [b:1,h:32,w:32,c:48]    480/624               442,416                          nl_7_nl   |                                    Conv2D_[9]                  
       nl_8_nl (Nonlinearity, DEPTHWISE_CONV_2D)    [b:1,h:32,w:32,c:48]                           49,152                         conv2d_8   |                -49,152(-100.0%)    
------ -------------------------------------------- ----------------------- ----------------- ----------- -------------------------------- --- -------------- ------------------- --------------------------- 
9      conv2d_9 (Conv2D, CONV_2D)                   [b:1,h:32,w:32,c:8]     392/416               393,224                          nl_8_nl   |                                    Conv2D_[10]                 
------ -------------------------------------------- ----------------------- ----------------- ----------- -------------------------------- --- -------------- ------------------- --------------------------- 
10     eltwise_10 (Eltwise, ADD)                    [b:1,h:32,w:32,c:8]                             8,192                         conv2d_6   |                                    Eltwise/add_[11]            
                                                                                                                                  conv2d_9   | 
------ -------------------------------------------- ----------------------- ----------------- ----------- -------------------------------- --- -------------- ------------------- --------------------------- 
11     conv2d_11 (Conv2D, CONV_2D)                  [b:1,h:32,w:32,c:48]    432/576               393,264                       eltwise_10   |                                    Conv2D_[12]                 
       nl_11_nl (Nonlinearity, CONV_2D)             [b:1,h:32,w:32,c:48]                           49,152                        conv2d_11   |                -49,152(-100.0%)    
------ -------------------------------------------- ----------------------- ----------------- ----------- -------------------------------- --- -------------- ------------------- --------------------------- 
12     conv2d_12 (Conv2D, DEPTHWISE_CONV_2D)        [b:1,h:16,w:16,c:48]    480/624               110,640                         nl_11_nl   |                                    Conv2D_[13]                 
       nl_12_nl (Nonlinearity, DEPTHWISE_CONV_2D)   [b:1,h:16,w:16,c:48]                           12,288                        conv2d_12   |                -12,288(-100.0%)    
------ -------------------------------------------- ----------------------- ----------------- ----------- -------------------------------- --- -------------- ------------------- --------------------------- 
13     conv2d_13 (Conv2D, CONV_2D)                  [b:1,h:16,w:16,c:16]    784/832               196,624                         nl_12_nl   |                                    Conv2D_[14]                 
------ -------------------------------------------- ----------------------- ----------------- ----------- -------------------------------- --- -------------- ------------------- --------------------------- 
14     conv2d_14 (Conv2D, CONV_2D)                  [b:1,h:16,w:16,c:96]    1,632/1,920           393,312                        conv2d_13   |                                    Conv2D_[15]                 
       nl_14_nl (Nonlinearity, CONV_2D)             [b:1,h:16,w:16,c:96]                           24,576                        conv2d_14   |                -24,576(-100.0%)    
------ -------------------------------------------- ----------------------- ----------------- ----------- -------------------------------- --- -------------- ------------------- --------------------------- 
15     conv2d_15 (Conv2D, DEPTHWISE_CONV_2D)        [b:1,h:16,w:16,c:96]    960/1,248             221,280                         nl_14_nl   |                                    Conv2D_[16]                 
       nl_15_nl (Nonlinearity, DEPTHWISE_CONV_2D)   [b:1,h:16,w:16,c:96]                           24,576                        conv2d_15   |                -24,576(-100.0%)    
------ -------------------------------------------- ----------------------- ----------------- ----------- -------------------------------- --- -------------- ------------------- --------------------------- 
16     conv2d_16 (Conv2D, CONV_2D)                  [b:1,h:16,w:16,c:16]    1,552/1,600           393,232                         nl_15_nl   |                                    Conv2D_[17]                 
------ -------------------------------------------- ----------------------- ----------------- ----------- -------------------------------- --- -------------- ------------------- --------------------------- 
17     eltwise_17 (Eltwise, ADD)                    [b:1,h:16,w:16,c:16]                            4,096                        conv2d_13   |                                    Eltwise/add_[18]            
                                                                                                                                 conv2d_16   | 
------ -------------------------------------------- ----------------------- ----------------- ----------- -------------------------------- --- -------------- ------------------- --------------------------- 
18     conv2d_18 (Conv2D, CONV_2D)                  [b:1,h:16,w:16,c:96]    1,632/1,920           393,312                       eltwise_17   |                                    Conv2D_[19]                 
       nl_18_nl (Nonlinearity, CONV_2D)             [b:1,h:16,w:16,c:96]                           24,576                        conv2d_18   |                -24,576(-100.0%)    
------ -------------------------------------------- ----------------------- ----------------- ----------- -------------------------------- --- -------------- ------------------- --------------------------- 
19     conv2d_19 (Conv2D, DEPTHWISE_CONV_2D)        [b:1,h:16,w:16,c:96]    960/1,248             221,280                         nl_18_nl   |                                    Conv2D_[20]                 
       nl_19_nl (Nonlinearity, DEPTHWISE_CONV_2D)   [b:1,h:16,w:16,c:96]                           24,576                        conv2d_19   |                -24,576(-100.0%)    
------ -------------------------------------------- ----------------------- ----------------- ----------- -------------------------------- --- -------------- ------------------- --------------------------- 
20     conv2d_20 (Conv2D, CONV_2D)                  [b:1,h:16,w:16,c:16]    1,552/1,600           393,232                         nl_19_nl   |                                    Conv2D_[21]                 
------ -------------------------------------------- ----------------------- ----------------- ----------- -------------------------------- --- -------------- ------------------- --------------------------- 
21     eltwise_21 (Eltwise, ADD)                    [b:1,h:16,w:16,c:16]                            4,096                       eltwise_17   |                                    Eltwise/add_[22]            
                                                                                                                                 conv2d_20   | 
------ -------------------------------------------- ----------------------- ----------------- ----------- -------------------------------- --- -------------- ------------------- --------------------------- 
22     conv2d_22 (Conv2D, CONV_2D)                  [b:1,h:16,w:16,c:96]    1,632/1,920           393,312                       eltwise_21   |                                    Conv2D_[23]                 
       nl_22_nl (Nonlinearity, CONV_2D)             [b:1,h:16,w:16,c:96]                           24,576                        conv2d_22   |                -24,576(-100.0%)    
------ -------------------------------------------- ----------------------- ----------------- ----------- -------------------------------- --- -------------- ------------------- --------------------------- 
23     conv2d_23 (Conv2D, DEPTHWISE_CONV_2D)        [b:1,h:8,w:8,c:96]      960/1,248              55,392                         nl_22_nl   |                                    Conv2D_[24]                 
       nl_23_nl (Nonlinearity, DEPTHWISE_CONV_2D)   [b:1,h:8,w:8,c:96]                              6,144                        conv2d_23   |                -6,144(-100.0%)     
------ -------------------------------------------- ----------------------- ----------------- ----------- -------------------------------- --- -------------- ------------------- --------------------------- 
24     conv2d_24 (Conv2D, CONV_2D)                  [b:1,h:8,w:8,c:24]      2,328/2,400           147,480                         nl_23_nl   |                                    Conv2D_[25]                 
------ -------------------------------------------- ----------------------- ----------------- ----------- -------------------------------- --- -------------- ------------------- --------------------------- 
25     conv2d_25 (Conv2D, CONV_2D)                  [b:1,h:8,w:8,c:144]     3,600/4,032           221,328                        conv2d_24   |                                    Conv2D_[26]                 
       nl_25_nl (Nonlinearity, CONV_2D)             [b:1,h:8,w:8,c:144]                             9,216                        conv2d_25   |                -9,216(-100.0%)     
------ -------------------------------------------- ----------------------- ----------------- ----------- -------------------------------- --- -------------- ------------------- --------------------------- 
26     conv2d_26 (Conv2D, DEPTHWISE_CONV_2D)        [b:1,h:8,w:8,c:144]     1,440/1,872            83,088                         nl_25_nl   |                                    Conv2D_[27]                 
       nl_26_nl (Nonlinearity, DEPTHWISE_CONV_2D)   [b:1,h:8,w:8,c:144]                             9,216                        conv2d_26   |                -9,216(-100.0%)     
------ -------------------------------------------- ----------------------- ----------------- ----------- -------------------------------- --- -------------- ------------------- --------------------------- 
27     conv2d_27 (Conv2D, CONV_2D)                  [b:1,h:8,w:8,c:24]      3,480/3,552           221,208                         nl_26_nl   |                                    Conv2D_[28]                 
------ -------------------------------------------- ----------------------- ----------------- ----------- -------------------------------- --- -------------- ------------------- --------------------------- 
28     eltwise_28 (Eltwise, ADD)                    [b:1,h:8,w:8,c:24]                              1,536                        conv2d_24   |                                    Eltwise/add_[29]            
                                                                                                                                 conv2d_27   | 
------ -------------------------------------------- ----------------------- ----------------- ----------- -------------------------------- --- -------------- ------------------- --------------------------- 
29     conv2d_29 (Conv2D, CONV_2D)                  [b:1,h:8,w:8,c:144]     3,600/4,032           221,328                       eltwise_28   |                                    Conv2D_[30]                 
       nl_29_nl (Nonlinearity, CONV_2D)             [b:1,h:8,w:8,c:144]                             9,216                        conv2d_29   |                -9,216(-100.0%)     
------ -------------------------------------------- ----------------------- ----------------- ----------- -------------------------------- --- -------------- ------------------- --------------------------- 
30     conv2d_30 (Conv2D, DEPTHWISE_CONV_2D)        [b:1,h:8,w:8,c:144]     1,440/1,872            83,088                         nl_29_nl   |                                    Conv2D_[31]                 
       nl_30_nl (Nonlinearity, DEPTHWISE_CONV_2D)   [b:1,h:8,w:8,c:144]                             9,216                        conv2d_30   |                -9,216(-100.0%)     
------ -------------------------------------------- ----------------------- ----------------- ----------- -------------------------------- --- -------------- ------------------- --------------------------- 
31     conv2d_31 (Conv2D, CONV_2D)                  [b:1,h:8,w:8,c:24]      3,480/3,552           221,208                         nl_30_nl   |                                    Conv2D_[32]                 
------ -------------------------------------------- ----------------------- ----------------- ----------- -------------------------------- --- -------------- ------------------- --------------------------- 
32     eltwise_32 (Eltwise, ADD)                    [b:1,h:8,w:8,c:24]                              1,536                       eltwise_28   |                                    Eltwise/add_[33]            
                                                                                                                                 conv2d_31   | 
------ -------------------------------------------- ----------------------- ----------------- ----------- -------------------------------- --- -------------- ------------------- --------------------------- 
33     conv2d_33 (Conv2D, CONV_2D)                  [b:1,h:8,w:8,c:144]     3,600/4,032           221,328                       eltwise_32   |                                    Conv2D_[34]                 
       nl_33_nl (Nonlinearity, CONV_2D)             [b:1,h:8,w:8,c:144]                             9,216                        conv2d_33   |                -9,216(-100.0%)     
------ -------------------------------------------- ----------------------- ----------------- ----------- -------------------------------- --- -------------- ------------------- --------------------------- 
34     conv2d_34 (Conv2D, DEPTHWISE_CONV_2D)        [b:1,h:8,w:8,c:144]     1,440/1,872            83,088                         nl_33_nl   |                                    Conv2D_[35]                 
       nl_34_nl (Nonlinearity, DEPTHWISE_CONV_2D)   [b:1,h:8,w:8,c:144]                             9,216                        conv2d_34   |                -9,216(-100.0%)     
------ -------------------------------------------- ----------------------- ----------------- ----------- -------------------------------- --- -------------- ------------------- --------------------------- 
35     conv2d_35 (Conv2D, CONV_2D)                  [b:1,h:8,w:8,c:24]      3,480/3,552           221,208                         nl_34_nl   |                                    Conv2D_[36]                 
------ -------------------------------------------- ----------------------- ----------------- ----------- -------------------------------- --- -------------- ------------------- --------------------------- 
36     eltwise_36 (Eltwise, ADD)                    [b:1,h:8,w:8,c:24]                              1,536                       eltwise_32   |                                    Eltwise/add_[37]            
                                                                                                                                 conv2d_35   | 
------ -------------------------------------------- ----------------------- ----------------- ----------- -------------------------------- --- -------------- ------------------- --------------------------- 
37     conv2d_37 (Conv2D, CONV_2D)                  [b:1,h:8,w:8,c:144]     3,600/4,032           221,328                       eltwise_36   |                                    Conv2D_[38]                 
       nl_37_nl (Nonlinearity, CONV_2D)             [b:1,h:8,w:8,c:144]                             9,216                        conv2d_37   |                -9,216(-100.0%)     
------ -------------------------------------------- ----------------------- ----------------- ----------- -------------------------------- --- -------------- ------------------- --------------------------- 
38     conv2d_38 (Conv2D, DEPTHWISE_CONV_2D)        [b:1,h:8,w:8,c:144]     1,440/1,872            83,088                         nl_37_nl   |                                    Conv2D_[39]                 
       nl_38_nl (Nonlinearity, DEPTHWISE_CONV_2D)   [b:1,h:8,w:8,c:144]                             9,216                        conv2d_38   |                -9,216(-100.0%)     
------ -------------------------------------------- ----------------------- ----------------- ----------- -------------------------------- --- -------------- ------------------- --------------------------- 
39     conv2d_39 (Conv2D, CONV_2D)                  [b:1,h:8,w:8,c:32]      4,640/4,736           294,944                         nl_38_nl   |                                    Conv2D_[40]                 
------ -------------------------------------------- ----------------------- ----------------- ----------- -------------------------------- --- -------------- ------------------- --------------------------- 
40     conv2d_40 (Conv2D, CONV_2D)                  [b:1,h:8,w:8,c:192]     6,336/6,912           393,408                        conv2d_39   |                                    Conv2D_[41]                 
       nl_40_nl (Nonlinearity, CONV_2D)             [b:1,h:8,w:8,c:192]                            12,288                        conv2d_40   |                -12,288(-100.0%)    
------ -------------------------------------------- ----------------------- ----------------- ----------- -------------------------------- --- -------------- ------------------- --------------------------- 
41     conv2d_41 (Conv2D, DEPTHWISE_CONV_2D)        [b:1,h:8,w:8,c:192]     1,920/2,496           110,784                         nl_40_nl   |                                    Conv2D_[42]                 
       nl_41_nl (Nonlinearity, DEPTHWISE_CONV_2D)   [b:1,h:8,w:8,c:192]                            12,288                        conv2d_41   |                -12,288(-100.0%)    
------ -------------------------------------------- ----------------------- ----------------- ----------- -------------------------------- --- -------------- ------------------- --------------------------- 
42     conv2d_42 (Conv2D, CONV_2D)                  [b:1,h:8,w:8,c:32]      6,176/6,272           393,248                         nl_41_nl   |                                    Conv2D_[43]                 
------ -------------------------------------------- ----------------------- ----------------- ----------- -------------------------------- --- -------------- ------------------- --------------------------- 
43     eltwise_43 (Eltwise, ADD)                    [b:1,h:8,w:8,c:32]                              2,048                        conv2d_39   |                                    Eltwise/add_[44]            
                                                                                                                                 conv2d_42   | 
------ -------------------------------------------- ----------------------- ----------------- ----------- -------------------------------- --- -------------- ------------------- --------------------------- 
44     conv2d_44 (Conv2D, CONV_2D)                  [b:1,h:8,w:8,c:192]     6,336/6,912           393,408                       eltwise_43   |                                    Conv2D_[45]                 
       nl_44_nl (Nonlinearity, CONV_2D)             [b:1,h:8,w:8,c:192]                            12,288                        conv2d_44   |                -12,288(-100.0%)    
------ -------------------------------------------- ----------------------- ----------------- ----------- -------------------------------- --- -------------- ------------------- --------------------------- 
45     conv2d_45 (Conv2D, DEPTHWISE_CONV_2D)        [b:1,h:8,w:8,c:192]     1,920/2,496           110,784                         nl_44_nl   |                                    Conv2D_[46]                 
       nl_45_nl (Nonlinearity, DEPTHWISE_CONV_2D)   [b:1,h:8,w:8,c:192]                            12,288                        conv2d_45   |                -12,288(-100.0%)    
------ -------------------------------------------- ----------------------- ----------------- ----------- -------------------------------- --- -------------- ------------------- --------------------------- 
46     conv2d_46 (Conv2D, CONV_2D)                  [b:1,h:8,w:8,c:32]      6,176/6,272           393,248                         nl_45_nl   |                                    Conv2D_[47]                 
------ -------------------------------------------- ----------------------- ----------------- ----------- -------------------------------- --- -------------- ------------------- --------------------------- 
47     eltwise_47 (Eltwise, ADD)                    [b:1,h:8,w:8,c:32]                              2,048                       eltwise_43   |                                    Eltwise/add_[48]            
                                                                                                                                 conv2d_46   | 
------ -------------------------------------------- ----------------------- ----------------- ----------- -------------------------------- --- -------------- ------------------- --------------------------- 
48     conv2d_48 (Conv2D, CONV_2D)                  [b:1,h:8,w:8,c:192]     6,336/6,912           393,408                       eltwise_47   |                                    Conv2D_[49]                 
       nl_48_nl (Nonlinearity, CONV_2D)             [b:1,h:8,w:8,c:192]                            12,288                        conv2d_48   |                -12,288(-100.0%)    
------ -------------------------------------------- ----------------------- ----------------- ----------- -------------------------------- --- -------------- ------------------- --------------------------- 
49     conv2d_49 (Conv2D, DEPTHWISE_CONV_2D)        [b:1,h:4,w:4,c:192]     1,920/2,496            27,840                         nl_48_nl   |                                    Conv2D_[50]                 
       nl_49_nl (Nonlinearity, DEPTHWISE_CONV_2D)   [b:1,h:4,w:4,c:192]                             3,072                        conv2d_49   |                -3,072(-100.0%)     
------ -------------------------------------------- ----------------------- ----------------- ----------- -------------------------------- --- -------------- ------------------- --------------------------- 
50     conv2d_50 (Conv2D, CONV_2D)                  [b:1,h:4,w:4,c:56]      10,808/10,976         172,088                         nl_49_nl   |                                    Conv2D_[51]                 
------ -------------------------------------------- ----------------------- ----------------- ----------- -------------------------------- --- -------------- ------------------- --------------------------- 
51     conv2d_51 (Conv2D, CONV_2D)                  [b:1,h:4,w:4,c:336]     19,152/20,160         301,392                        conv2d_50   |                                    Conv2D_[52]                 
       nl_51_nl (Nonlinearity, CONV_2D)             [b:1,h:4,w:4,c:336]                             5,376                        conv2d_51   |                -5,376(-100.0%)     
------ -------------------------------------------- ----------------------- ----------------- ----------- -------------------------------- --- -------------- ------------------- --------------------------- 
52     conv2d_52 (Conv2D, DEPTHWISE_CONV_2D)        [b:1,h:4,w:4,c:336]     3,360/4,368            48,720                         nl_51_nl   |                                    Conv2D_[53]                 
       nl_52_nl (Nonlinearity, DEPTHWISE_CONV_2D)   [b:1,h:4,w:4,c:336]                             5,376                        conv2d_52   |                -5,376(-100.0%)     
------ -------------------------------------------- ----------------------- ----------------- ----------- -------------------------------- --- -------------- ------------------- --------------------------- 
53     conv2d_53 (Conv2D, CONV_2D)                  [b:1,h:4,w:4,c:56]      18,872/19,040         301,112                         nl_52_nl   |                                    Conv2D_[54]                 
------ -------------------------------------------- ----------------------- ----------------- ----------- -------------------------------- --- -------------- ------------------- --------------------------- 
54     eltwise_54 (Eltwise, ADD)                    [b:1,h:4,w:4,c:56]                                896                        conv2d_50   |                                    Eltwise/add_[55]            
                                                                                                                                 conv2d_53   | 
------ -------------------------------------------- ----------------------- ----------------- ----------- -------------------------------- --- -------------- ------------------- --------------------------- 
55     conv2d_55 (Conv2D, CONV_2D)                  [b:1,h:4,w:4,c:336]     19,152/20,160         301,392                       eltwise_54   |                                    Conv2D_[56]                 
       nl_55_nl (Nonlinearity, CONV_2D)             [b:1,h:4,w:4,c:336]                             5,376                        conv2d_55   |                -5,376(-100.0%)     
------ -------------------------------------------- ----------------------- ----------------- ----------- -------------------------------- --- -------------- ------------------- --------------------------- 
56     conv2d_56 (Conv2D, DEPTHWISE_CONV_2D)        [b:1,h:4,w:4,c:336]     3,360/4,368            48,720                         nl_55_nl   |                                    Conv2D_[57]                 
       nl_56_nl (Nonlinearity, DEPTHWISE_CONV_2D)   [b:1,h:4,w:4,c:336]                             5,376                        conv2d_56   |                -5,376(-100.0%)     
------ -------------------------------------------- ----------------------- ----------------- ----------- -------------------------------- --- -------------- ------------------- --------------------------- 
57     conv2d_57 (Conv2D, CONV_2D)                  [b:1,h:4,w:4,c:56]      18,872/19,040         301,112                         nl_56_nl   |                                    Conv2D_[58]                 
------ -------------------------------------------- ----------------------- ----------------- ----------- -------------------------------- --- -------------- ------------------- --------------------------- 
58     eltwise_58 (Eltwise, ADD)                    [b:1,h:4,w:4,c:56]                                896                       eltwise_54   |                                    Eltwise/add_[59]            
                                                                                                                                 conv2d_57   | 
------ -------------------------------------------- ----------------------- ----------------- ----------- -------------------------------- --- -------------- ------------------- --------------------------- 
59     conv2d_59 (Conv2D, CONV_2D)                  [b:1,h:4,w:4,c:336]     19,152/20,160         301,392                       eltwise_58   |                                    Conv2D_[60]                 
       nl_59_nl (Nonlinearity, CONV_2D)             [b:1,h:4,w:4,c:336]                             5,376                        conv2d_59   |                -5,376(-100.0%)     
------ -------------------------------------------- ----------------------- ----------------- ----------- -------------------------------- --- -------------- ------------------- --------------------------- 
60     conv2d_60 (Conv2D, DEPTHWISE_CONV_2D)        [b:1,h:4,w:4,c:336]     3,360/4,368            48,720                         nl_59_nl   |                                    Conv2D_[61]                 
       nl_60_nl (Nonlinearity, DEPTHWISE_CONV_2D)   [b:1,h:4,w:4,c:336]                             5,376                        conv2d_60   |                -5,376(-100.0%)     
------ -------------------------------------------- ----------------------- ----------------- ----------- -------------------------------- --- -------------- ------------------- --------------------------- 
61     conv2d_61 (Conv2D, CONV_2D)                  [b:1,h:4,w:4,c:112]     37,744/38,080         602,224                         nl_60_nl   |                                    Conv2D_[62]                 
------ -------------------------------------------- ----------------------- ----------------- ----------- -------------------------------- --- -------------- ------------------- --------------------------- 
62     conv2d_62 (Conv2D, CONV_2D)                  [b:1,h:4,w:4,c:1280]    144,640/148,480     2,295,040                        conv2d_61   |                                    Conv2D_[63]                 
       nl_62_nl (Nonlinearity, CONV_2D)             [b:1,h:4,w:4,c:1280]                           20,480                        conv2d_62   |                -20,480(-100.0%)    
------ -------------------------------------------- ----------------------- ----------------- ----------- -------------------------------- --- -------------- ------------------- --------------------------- 
63     pool_63 (Pool, MEAN)                         [b:1,h:1,w:1,c:1280]                           20,480                         nl_62_nl   |                                    Pool_[64]                   
       reshape_63_reshape (Reshape, MEAN)           [b:1,c:1280]                                                                   pool_63   |                                    
------ -------------------------------------------- ----------------------- ----------------- ----------- -------------------------------- --- -------------- ------------------- --------------------------- 
64     tfl_pseudo_qconst1 (Placeholder, )           [b:3,c:1280]            3,840/3,840                                                      | +12(+0.3%)     +3,843(+100.0%)     Dense_[65]                  
       tfl_pseudo_qconst (Placeholder, )            [b:3]                   3/12                                                             | -12(-100.0%)                       
       gemm_64 (Gemm, FULLY_CONNECTED)              [b:1,c:3]                                       3,843               reshape_63_reshape   |                -3,843(-100.0%)     
                                                                                                                        tfl_pseudo_qconst1   | 
                                                                                                                         tfl_pseudo_qconst   | 
------ -------------------------------------------- ----------------------- ----------------- ----------- -------------------------------- --- -------------- ------------------- --------------------------- 
65     nl_65 (Nonlinearity, SOFTMAX)                [b:1,c:3]                                          45                          gemm_64   |                                    Nonlinearity_[66]           
------ -------------------------------------------- ----------------------- ----------------- ----------- -------------------------------- --- -------------- ------------------- --------------------------- 
66     conversion_66 (Conversion, DEQUANTIZE)       [b:1,c:3]                                           6                            nl_65   |                                    Conversion_[o][67]          
------ -------------------------------------------- ----------------------- ----------------- ----------- -------------------------------- --- -------------- ------------------- --------------------------- 
model/c-model: macc=19,904,697/19,080,889 -823,808(-4.1%) weights=414,075/414,076 +1(+0.0%) activations=--/230,116 io=--/0



Generated C-graph summary
------------------------------------------------------------------------------------------------------------------------
model name            : mobilenet_rock_paper_scissors_int8
c-name                : network
c-node #              : 68
c-array #             : 232
activations size      : 230116 (2 segments)
weights size          : 414076 (1 segment)
macc                  : 19080889
inputs                : ['serving_default_input_layer_50_output']
outputs               : ['conversion_66_output']

C-Arrays (232)
------ ---------------------------------------------------- --------------- --------------------- ----------- --------- 
c_id   name (*_array)                                       item/size       domain/mem-pool       c-type      comment   
------ ---------------------------------------------------- --------------- --------------------- ----------- --------- 
0      conv2d_0_bias                                        3/12            weights/weights       const s32             
1      conv2d_0_output                                      49152/49153     activations/RAM_D1    s8                    
2      conv2d_0_scratch0                                    34/34           activations/RAM_D1    s8                    
3      conv2d_0_weights                                     3/3             weights/weights       const s8              
4      conv2d_11_bias                                       48/192          weights/weights       const s32             
5      conv2d_11_output                                     49152/49152     activations/RAM_D1    s8                    
6      conv2d_11_scratch0                                   512/512         activations/DTCMRAM   s8                    
7      conv2d_11_weights                                    384/384         weights/weights       const s8              
8      conv2d_12_bias                                       48/192          weights/weights       const s32             
9      conv2d_12_output                                     12288/12288     activations/RAM_D1    s8                    
10     conv2d_12_scratch0                                   1777/1777       activations/RAM_D1    s8                    
11     conv2d_12_weights                                    432/432         weights/weights       const s8              
12     conv2d_13_bias                                       16/64           weights/weights       const s32             
13     conv2d_13_output                                     4096/4096       activations/RAM_D1    s8                    
14     conv2d_13_scratch0                                   352/352         activations/RAM_D1    s8                    
15     conv2d_13_weights                                    768/768         weights/weights       const s8              
16     conv2d_14_bias                                       96/384          weights/weights       const s32             
17     conv2d_14_output                                     24576/24576     activations/RAM_D1    s8                    
18     conv2d_14_scratch0                                   1024/1024       activations/RAM_D1    s8                    
19     conv2d_14_weights                                    1536/1536       weights/weights       const s8              
20     conv2d_15_bias                                       96/384          weights/weights       const s32             
21     conv2d_15_output                                     24576/24576     activations/RAM_D1    s8                    
22     conv2d_15_scratch0                                   3553/3553       activations/RAM_D1    s8                    
23     conv2d_15_weights                                    864/864         weights/weights       const s8              
24     conv2d_16_bias                                       16/64           weights/weights       const s32             
25     conv2d_16_output                                     4096/4096       activations/RAM_D1    s8                    
26     conv2d_16_scratch0                                   544/544         activations/RAM_D1    s8                    
27     conv2d_16_weights                                    1536/1536       weights/weights       const s8              
28     conv2d_18_bias                                       96/384          weights/weights       const s32             
29     conv2d_18_output                                     24576/24576     activations/RAM_D1    s8                    
30     conv2d_18_scratch0                                   1024/1024       activations/RAM_D1    s8                    
31     conv2d_18_weights                                    1536/1536       weights/weights       const s8              
32     conv2d_19_bias                                       96/384          weights/weights       const s32             
33     conv2d_19_output                                     24576/24576     activations/RAM_D1    s8                    
34     conv2d_19_scratch0                                   3553/3553       activations/RAM_D1    s8                    
35     conv2d_19_weights                                    864/864         weights/weights       const s8              
36     conv2d_1_bias                                        16/64           weights/weights       const s32             
37     conv2d_1_output                                      65536/65536     activations/RAM_D1    s8                    
38     conv2d_1_scratch0                                    1196/1196       activations/RAM_D1    s8                    
39     conv2d_1_weights                                     432/432         weights/weights       const s8              
40     conv2d_20_bias                                       16/64           weights/weights       const s32             
41     conv2d_20_output                                     4096/4096       activations/RAM_D1    s8                    
42     conv2d_20_scratch0                                   544/544         activations/RAM_D1    s8                    
43     conv2d_20_weights                                    1536/1536       weights/weights       const s8              
44     conv2d_22_bias                                       96/384          weights/weights       const s32             
45     conv2d_22_output                                     24576/24576     activations/RAM_D1    s8                    
46     conv2d_22_scratch0                                   1024/1024       activations/RAM_D1    s8                    
47     conv2d_22_weights                                    1536/1536       weights/weights       const s8              
48     conv2d_23_bias                                       96/384          weights/weights       const s32             
49     conv2d_23_output                                     6144/6144       activations/RAM_D1    s8                    
50     conv2d_23_scratch0                                   3553/3553       activations/RAM_D1    s8                    
51     conv2d_23_weights                                    864/864         weights/weights       const s8              
52     conv2d_24_bias                                       24/96           weights/weights       const s32             
53     conv2d_24_output                                     1536/1536       activations/RAM_D1    s8                    
54     conv2d_24_scratch0                                   624/624         activations/RAM_D1    s8                    
55     conv2d_24_weights                                    2304/2304       weights/weights       const s8              
56     conv2d_25_bias                                       144/576         weights/weights       const s32             
57     conv2d_25_output                                     9216/9216       activations/RAM_D1    s8                    
58     conv2d_25_scratch0                                   1536/1536       activations/RAM_D1    s8                    
59     conv2d_25_weights                                    3456/3456       weights/weights       const s8              
60     conv2d_26_bias                                       144/576         weights/weights       const s32             
61     conv2d_26_output                                     9216/9216       activations/RAM_D1    s8                    
62     conv2d_26_scratch0                                   5329/5329       activations/RAM_D1    s8                    
63     conv2d_26_weights                                    1296/1296       weights/weights       const s8              
64     conv2d_27_bias                                       24/96           weights/weights       const s32             
65     conv2d_27_output                                     1536/1536       activations/RAM_D1    s8                    
66     conv2d_27_scratch0                                   816/816         activations/RAM_D1    s8                    
67     conv2d_27_weights                                    3456/3456       weights/weights       const s8              
68     conv2d_29_bias                                       144/576         weights/weights       const s32             
69     conv2d_29_output                                     9216/9216       activations/RAM_D1    s8                    
70     conv2d_29_scratch0                                   1536/1536       activations/RAM_D1    s8                    
71     conv2d_29_weights                                    3456/3456       weights/weights       const s8              
72     conv2d_2_bias                                        16/64           weights/weights       const s32             
73     conv2d_2_output                                      65536/65536     activations/RAM_D1    s8                    
74     conv2d_2_scratch0                                    593/593         activations/DTCMRAM   s8                    
75     conv2d_2_weights                                     144/144         weights/weights       const s8              
76     conv2d_30_bias                                       144/576         weights/weights       const s32             
77     conv2d_30_output                                     9216/9216       activations/RAM_D1    s8                    
78     conv2d_30_scratch0                                   5329/5329       activations/RAM_D1    s8                    
79     conv2d_30_weights                                    1296/1296       weights/weights       const s8              
80     conv2d_31_bias                                       24/96           weights/weights       const s32             
81     conv2d_31_output                                     1536/1536       activations/RAM_D1    s8                    
82     conv2d_31_scratch0                                   816/816         activations/RAM_D1    s8                    
83     conv2d_31_weights                                    3456/3456       weights/weights       const s8              
84     conv2d_33_bias                                       144/576         weights/weights       const s32             
85     conv2d_33_output                                     9216/9216       activations/RAM_D1    s8                    
86     conv2d_33_scratch0                                   1536/1536       activations/RAM_D1    s8                    
87     conv2d_33_weights                                    3456/3456       weights/weights       const s8              
88     conv2d_34_bias                                       144/576         weights/weights       const s32             
89     conv2d_34_output                                     9216/9216       activations/RAM_D1    s8                    
90     conv2d_34_scratch0                                   5329/5329       activations/RAM_D1    s8                    
91     conv2d_34_weights                                    1296/1296       weights/weights       const s8              
92     conv2d_35_bias                                       24/96           weights/weights       const s32             
93     conv2d_35_output                                     1536/1536       activations/RAM_D1    s8                    
94     conv2d_35_scratch0                                   816/816         activations/RAM_D1    s8                    
95     conv2d_35_weights                                    3456/3456       weights/weights       const s8              
96     conv2d_37_bias                                       144/576         weights/weights       const s32             
97     conv2d_37_output                                     9216/9216       activations/RAM_D1    s8                    
98     conv2d_37_scratch0                                   1536/1536       activations/RAM_D1    s8                    
99     conv2d_37_weights                                    3456/3456       weights/weights       const s8              
100    conv2d_38_bias                                       144/576         weights/weights       const s32             
101    conv2d_38_output                                     9216/9216       activations/RAM_D1    s8                    
102    conv2d_38_scratch0                                   5329/5329       activations/RAM_D1    s8                    
103    conv2d_38_weights                                    1296/1296       weights/weights       const s8              
104    conv2d_39_bias                                       32/128          weights/weights       const s32             
105    conv2d_39_output                                     2048/2048       activations/RAM_D1    s8                    
106    conv2d_39_scratch0                                   896/896         activations/RAM_D1    s8                    
107    conv2d_39_weights                                    4608/4608       weights/weights       const s8              
108    conv2d_3_bias                                        8/32            weights/weights       const s32             
109    conv2d_3_output                                      32768/32768     activations/RAM_D1    s8                    
110    conv2d_3_scratch0                                    144/144         activations/DTCMRAM   s8                    
111    conv2d_3_weights                                     128/128         weights/weights       const s8              
112    conv2d_40_bias                                       192/768         weights/weights       const s32             
113    conv2d_40_output                                     12288/12288     activations/RAM_D1    s8                    
114    conv2d_40_scratch0                                   2048/2048       activations/RAM_D1    s8                    
115    conv2d_40_weights                                    6144/6144       weights/weights       const s8              
116    conv2d_41_bias                                       192/768         weights/weights       const s32             
117    conv2d_41_output                                     12288/12288     activations/RAM_D1    s8                    
118    conv2d_41_scratch0                                   7105/7105       activations/RAM_D1    s8                    
119    conv2d_41_weights                                    1728/1728       weights/weights       const s8              
120    conv2d_42_bias                                       32/128          weights/weights       const s32             
121    conv2d_42_output                                     2048/2048       activations/RAM_D1    s8                    
122    conv2d_42_scratch0                                   1088/1088       activations/RAM_D1    s8                    
123    conv2d_42_weights                                    6144/6144       weights/weights       const s8              
124    conv2d_44_bias                                       192/768         weights/weights       const s32             
125    conv2d_44_output                                     12288/12288     activations/RAM_D1    s8                    
126    conv2d_44_scratch0                                   2048/2048       activations/RAM_D1    s8                    
127    conv2d_44_weights                                    6144/6144       weights/weights       const s8              
128    conv2d_45_bias                                       192/768         weights/weights       const s32             
129    conv2d_45_output                                     12288/12288     activations/RAM_D1    s8                    
130    conv2d_45_scratch0                                   7105/7105       activations/RAM_D1    s8                    
131    conv2d_45_weights                                    1728/1728       weights/weights       const s8              
132    conv2d_46_bias                                       32/128          weights/weights       const s32             
133    conv2d_46_output                                     2048/2048       activations/RAM_D1    s8                    
134    conv2d_46_scratch0                                   1088/1088       activations/RAM_D1    s8                    
135    conv2d_46_weights                                    6144/6144       weights/weights       const s8              
136    conv2d_48_bias                                       192/768         weights/weights       const s32             
137    conv2d_48_output                                     12288/12288     activations/RAM_D1    s8                    
138    conv2d_48_scratch0                                   2048/2048       activations/RAM_D1    s8                    
139    conv2d_48_weights                                    6144/6144       weights/weights       const s8              
140    conv2d_49_bias                                       192/768         weights/weights       const s32             
141    conv2d_49_output                                     3072/3072       activations/RAM_D1    s8                    
142    conv2d_49_scratch0                                   7105/7105       activations/RAM_D1    s8                    
143    conv2d_49_weights                                    1728/1728       weights/weights       const s8              
144    conv2d_4_bias                                        48/192          weights/weights       const s32             
145    conv2d_4_output                                      196608/196608   activations/RAM_D1    s8                    
146    conv2d_4_scratch0                                    512/512         activations/DTCMRAM   s8                    
147    conv2d_4_weights                                     384/384         weights/weights       const s8              
148    conv2d_50_bias                                       56/224          weights/weights       const s32             
149    conv2d_50_output                                     896/896         activations/RAM_D1    s8                    
150    conv2d_50_scratch0                                   1328/1328       activations/RAM_D1    s8                    
151    conv2d_50_weights                                    10752/10752     weights/weights       const s8              
152    conv2d_51_bias                                       336/1344        weights/weights       const s32             
153    conv2d_51_output                                     5376/5376       activations/RAM_D1    s8                    
154    conv2d_51_scratch0                                   3584/3584       activations/RAM_D1    s8                    
155    conv2d_51_weights                                    18816/18816     weights/weights       const s8              
156    conv2d_52_bias                                       336/1344        weights/weights       const s32             
157    conv2d_52_output                                     5376/5376       activations/RAM_D1    s8                    
158    conv2d_52_scratch0                                   12433/12433     activations/RAM_D1    s8                    
159    conv2d_52_weights                                    3024/3024       weights/weights       const s8              
160    conv2d_53_bias                                       56/224          weights/weights       const s32             
161    conv2d_53_output                                     896/896         activations/RAM_D1    s8                    
162    conv2d_53_scratch0                                   1904/1904       activations/RAM_D1    s8                    
163    conv2d_53_weights                                    18816/18816     weights/weights       const s8              
164    conv2d_55_bias                                       336/1344        weights/weights       const s32             
165    conv2d_55_output                                     5376/5376       activations/RAM_D1    s8                    
166    conv2d_55_scratch0                                   3584/3584       activations/RAM_D1    s8                    
167    conv2d_55_weights                                    18816/18816     weights/weights       const s8              
168    conv2d_56_bias                                       336/1344        weights/weights       const s32             
169    conv2d_56_output                                     5376/5376       activations/RAM_D1    s8                    
170    conv2d_56_scratch0                                   12433/12433     activations/RAM_D1    s8                    
171    conv2d_56_weights                                    3024/3024       weights/weights       const s8              
172    conv2d_57_bias                                       56/224          weights/weights       const s32             
173    conv2d_57_output                                     896/896         activations/RAM_D1    s8                    
174    conv2d_57_scratch0                                   1904/1904       activations/RAM_D1    s8                    
175    conv2d_57_weights                                    18816/18816     weights/weights       const s8              
176    conv2d_59_bias                                       336/1344        weights/weights       const s32             
177    conv2d_59_output                                     5376/5376       activations/RAM_D1    s8                    
178    conv2d_59_scratch0                                   3584/3584       activations/RAM_D1    s8                    
179    conv2d_59_weights                                    18816/18816     weights/weights       const s8              
180    conv2d_5_bias                                        48/192          weights/weights       const s32             
181    conv2d_5_output                                      49152/49152     activations/RAM_D1    s8                    
182    conv2d_5_scratch0                                    1777/1777       activations/RAM_D1    s8                    
183    conv2d_5_weights                                     432/432         weights/weights       const s8              
184    conv2d_60_bias                                       336/1344        weights/weights       const s32             
185    conv2d_60_output                                     5376/5376       activations/RAM_D1    s8                    
186    conv2d_60_scratch0                                   12433/12433     activations/RAM_D1    s8                    
187    conv2d_60_weights                                    3024/3024       weights/weights       const s8              
188    conv2d_61_bias                                       112/448         weights/weights       const s32             
189    conv2d_61_output                                     1792/1792       activations/RAM_D1    s8                    
190    conv2d_61_scratch0                                   2464/2464       activations/RAM_D1    s8                    
191    conv2d_61_weights                                    37632/37632     weights/weights       const s8              
192    conv2d_62_bias                                       1280/5120       weights/weights       const s32             
193    conv2d_62_output                                     20480/20480     activations/RAM_D1    s8                    
194    conv2d_62_scratch0                                   13248/13248     activations/RAM_D1    s8                    
195    conv2d_62_weights                                    143360/143360   weights/weights       const s8              
196    conv2d_6_bias                                        8/32            weights/weights       const s32             
197    conv2d_6_output                                      8192/8192       activations/RAM_D1    s8                    
198    conv2d_6_scratch0                                    272/272         activations/DTCMRAM   s8                    
199    conv2d_6_weights                                     384/384         weights/weights       const s8              
200    conv2d_7_bias                                        48/192          weights/weights       const s32             
201    conv2d_7_output                                      49152/49152     activations/RAM_D1    s8                    
202    conv2d_7_scratch0                                    512/512         activations/RAM_D1    s8                    
203    conv2d_7_weights                                     384/384         weights/weights       const s8              
204    conv2d_8_bias                                        48/192          weights/weights       const s32             
205    conv2d_8_output                                      49152/49152     activations/RAM_D1    s8                    
206    conv2d_8_scratch0                                    1777/1777       activations/RAM_D1    s8                    
207    conv2d_8_weights                                     432/432         weights/weights       const s8              
208    conv2d_9_bias                                        8/32            weights/weights       const s32             
209    conv2d_9_output                                      8192/8192       activations/RAM_D1    s8                    
210    conv2d_9_scratch0                                    272/272         activations/RAM_D1    s8                    
211    conv2d_9_weights                                     384/384         weights/weights       const s8              
212    conversion_66_output                                 3/12            activations/DTCMRAM   float       /output   
213    eltwise_10_output                                    8192/8192       activations/RAM_D1    s8                    
214    eltwise_17_output                                    4096/4096       activations/RAM_D1    s8                    
215    eltwise_21_output                                    4096/4096       activations/RAM_D1    s8                    
216    eltwise_28_output                                    1536/1536       activations/RAM_D1    s8                    
217    eltwise_32_output                                    1536/1536       activations/RAM_D1    s8                    
218    eltwise_36_output                                    1536/1536       activations/RAM_D1    s8                    
219    eltwise_43_output                                    2048/2048       activations/RAM_D1    s8                    
220    eltwise_47_output                                    2048/2048       activations/RAM_D1    s8                    
221    eltwise_54_output                                    896/896         activations/RAM_D1    s8                    
222    eltwise_58_output                                    896/896         activations/RAM_D1    s8                    
223    gemm_64_bias                                         3/12            weights/weights       const s32             
224    gemm_64_output                                       3/3             activations/DTCMRAM   s8                    
225    gemm_64_scratch0                                     1295/2590       activations/RAM_D1    s16                   
226    gemm_64_weights                                      3840/3840       weights/weights       const s8              
227    nl_65_output                                         3/3             activations/DTCMRAM   s8                    
228    nl_65_scratch0                                       124/496         activations/DTCMRAM   s32                   
229    pool_63_output                                       1280/1280       activations/RAM_D1    s8                    
230    serving_default_input_layer_50_0_conversion_output   16384/16384     activations/RAM_D1    s8                    
231    serving_default_input_layer_50_output                16384/16384     activations/RAM_D1    u8          /input    
------ ---------------------------------------------------- --------------- --------------------- ----------- --------- 

C-Layers (68)
------ --------------------------------------------- ---- --------------- --------- -------- ------------------------------------------------------- -------------------------- 
c_id   name (*_layer)                                id   layer_type      macc      rom      tensors                                                 shape (array id)           
------ --------------------------------------------- ---- --------------- --------- -------- ------------------------------------------------------- -------------------------- 
0      serving_default_input_layer_50_0_conversion   0    Conversion      32768     0        I: serving_default_input_layer_50_output                uint8(1x128x128x1) (231)   
                                                                                             O: serving_default_input_layer_50_0_conversion_output   int8(1x128x128x1) (230)    
------ --------------------------------------------- ---- --------------- --------- -------- ------------------------------------------------------- -------------------------- 
1      conv2d_0                                      0    Conv2D          49155     15       I: serving_default_input_layer_50_0_conversion_output   int8(1x128x128x1) (230)    
                                                                                             S: conv2d_0_scratch0                                                               
                                                                                             W: conv2d_0_weights                                     int8(3x1x1x1) (3)          
                                                                                             W: conv2d_0_bias                                        int32(3) (0)               
                                                                                             O: conv2d_0_output                                      int8(1x128x128x3) (1)      
------ --------------------------------------------- ---- --------------- --------- -------- ------------------------------------------------------- -------------------------- 
2      conv2d_1                                      1    Conv2D          1769488   496      I: conv2d_0_output                                      int8(1x128x128x3) (1)      
                                                                                             S: conv2d_1_scratch0                                                               
                                                                                             W: conv2d_1_weights                                     int8(16x3x3x3) (39)        
                                                                                             W: conv2d_1_bias                                        int32(16) (36)             
                                                                                             O: conv2d_1_output                                      int8(1x64x64x16) (37)      
------ --------------------------------------------- ---- --------------- --------- -------- ------------------------------------------------------- -------------------------- 
3      conv2d_2                                      2    Conv2D          589840    208      I: conv2d_1_output                                      int8(1x64x64x16) (37)      
                                                                                             S: conv2d_2_scratch0                                                               
                                                                                             W: conv2d_2_weights                                     int8(1x3x3x16) (75)        
                                                                                             W: conv2d_2_bias                                        int32(16) (72)             
                                                                                             O: conv2d_2_output                                      int8(1x64x64x16) (73)      
------ --------------------------------------------- ---- --------------- --------- -------- ------------------------------------------------------- -------------------------- 
4      conv2d_3                                      3    Conv2D          524296    160      I: conv2d_2_output                                      int8(1x64x64x16) (73)      
                                                                                             S: conv2d_3_scratch0                                                               
                                                                                             W: conv2d_3_weights                                     int8(8x1x1x16) (111)       
                                                                                             W: conv2d_3_bias                                        int32(8) (108)             
                                                                                             O: conv2d_3_output                                      int8(1x64x64x8) (109)      
------ --------------------------------------------- ---- --------------- --------- -------- ------------------------------------------------------- -------------------------- 
5      conv2d_4                                      4    Conv2D          1572912   576      I: conv2d_3_output                                      int8(1x64x64x8) (109)      
                                                                                             S: conv2d_4_scratch0                                                               
                                                                                             W: conv2d_4_weights                                     int8(48x1x1x8) (147)       
                                                                                             W: conv2d_4_bias                                        int32(48) (144)            
                                                                                             O: conv2d_4_output                                      int8(1x64x64x48) (145)     
------ --------------------------------------------- ---- --------------- --------- -------- ------------------------------------------------------- -------------------------- 
6      conv2d_5                                      5    Conv2D          442416    624      I: conv2d_4_output                                      int8(1x64x64x48) (145)     
                                                                                             S: conv2d_5_scratch0                                                               
                                                                                             W: conv2d_5_weights                                     int8(1x3x3x48) (183)       
                                                                                             W: conv2d_5_bias                                        int32(48) (180)            
                                                                                             O: conv2d_5_output                                      int8(1x32x32x48) (181)     
------ --------------------------------------------- ---- --------------- --------- -------- ------------------------------------------------------- -------------------------- 
7      conv2d_6                                      6    Conv2D          393224    416      I: conv2d_5_output                                      int8(1x32x32x48) (181)     
                                                                                             S: conv2d_6_scratch0                                                               
                                                                                             W: conv2d_6_weights                                     int8(8x1x1x48) (199)       
                                                                                             W: conv2d_6_bias                                        int32(8) (196)             
                                                                                             O: conv2d_6_output                                      int8(1x32x32x8) (197)      
------ --------------------------------------------- ---- --------------- --------- -------- ------------------------------------------------------- -------------------------- 
8      conv2d_7                                      7    Conv2D          393264    576      I: conv2d_6_output                                      int8(1x32x32x8) (197)      
                                                                                             S: conv2d_7_scratch0                                                               
                                                                                             W: conv2d_7_weights                                     int8(48x1x1x8) (203)       
                                                                                             W: conv2d_7_bias                                        int32(48) (200)            
                                                                                             O: conv2d_7_output                                      int8(1x32x32x48) (201)     
------ --------------------------------------------- ---- --------------- --------- -------- ------------------------------------------------------- -------------------------- 
9      conv2d_8                                      8    Conv2D          442416    624      I: conv2d_7_output                                      int8(1x32x32x48) (201)     
                                                                                             S: conv2d_8_scratch0                                                               
                                                                                             W: conv2d_8_weights                                     int8(1x3x3x48) (207)       
                                                                                             W: conv2d_8_bias                                        int32(48) (204)            
                                                                                             O: conv2d_8_output                                      int8(1x32x32x48) (205)     
------ --------------------------------------------- ---- --------------- --------- -------- ------------------------------------------------------- -------------------------- 
10     conv2d_9                                      9    Conv2D          393224    416      I: conv2d_8_output                                      int8(1x32x32x48) (205)     
                                                                                             S: conv2d_9_scratch0                                                               
                                                                                             W: conv2d_9_weights                                     int8(8x1x1x48) (211)       
                                                                                             W: conv2d_9_bias                                        int32(8) (208)             
                                                                                             O: conv2d_9_output                                      int8(1x32x32x8) (209)      
------ --------------------------------------------- ---- --------------- --------- -------- ------------------------------------------------------- -------------------------- 
11     eltwise_10                                    10   Eltwise/add     8192      0        I: conv2d_6_output                                      int8(1x32x32x8) (197)      
                                                                                             I: conv2d_9_output                                      int8(1x32x32x8) (197)      
                                                                                             O: eltwise_10_output                                    int8(1x32x32x8) (213)      
------ --------------------------------------------- ---- --------------- --------- -------- ------------------------------------------------------- -------------------------- 
12     conv2d_11                                     11   Conv2D          393264    576      I: eltwise_10_output                                    int8(1x32x32x8) (213)      
                                                                                             S: conv2d_11_scratch0                                                              
                                                                                             W: conv2d_11_weights                                    int8(48x1x1x8) (7)         
                                                                                             W: conv2d_11_bias                                       int32(48) (4)              
                                                                                             O: conv2d_11_output                                     int8(1x32x32x48) (5)       
------ --------------------------------------------- ---- --------------- --------- -------- ------------------------------------------------------- -------------------------- 
13     conv2d_12                                     12   Conv2D          110640    624      I: conv2d_11_output                                     int8(1x32x32x48) (5)       
                                                                                             S: conv2d_12_scratch0                                                              
                                                                                             W: conv2d_12_weights                                    int8(1x3x3x48) (11)        
                                                                                             W: conv2d_12_bias                                       int32(48) (8)              
                                                                                             O: conv2d_12_output                                     int8(1x16x16x48) (9)       
------ --------------------------------------------- ---- --------------- --------- -------- ------------------------------------------------------- -------------------------- 
14     conv2d_13                                     13   Conv2D          196624    832      I: conv2d_12_output                                     int8(1x16x16x48) (9)       
                                                                                             S: conv2d_13_scratch0                                                              
                                                                                             W: conv2d_13_weights                                    int8(16x1x1x48) (15)       
                                                                                             W: conv2d_13_bias                                       int32(16) (12)             
                                                                                             O: conv2d_13_output                                     int8(1x16x16x16) (13)      
------ --------------------------------------------- ---- --------------- --------- -------- ------------------------------------------------------- -------------------------- 
15     conv2d_14                                     14   Conv2D          393312    1920     I: conv2d_13_output                                     int8(1x16x16x16) (13)      
                                                                                             S: conv2d_14_scratch0                                                              
                                                                                             W: conv2d_14_weights                                    int8(96x1x1x16) (19)       
                                                                                             W: conv2d_14_bias                                       int32(96) (16)             
                                                                                             O: conv2d_14_output                                     int8(1x16x16x96) (17)      
------ --------------------------------------------- ---- --------------- --------- -------- ------------------------------------------------------- -------------------------- 
16     conv2d_15                                     15   Conv2D          221280    1248     I: conv2d_14_output                                     int8(1x16x16x96) (17)      
                                                                                             S: conv2d_15_scratch0                                                              
                                                                                             W: conv2d_15_weights                                    int8(1x3x3x96) (23)        
                                                                                             W: conv2d_15_bias                                       int32(96) (20)             
                                                                                             O: conv2d_15_output                                     int8(1x16x16x96) (21)      
------ --------------------------------------------- ---- --------------- --------- -------- ------------------------------------------------------- -------------------------- 
17     conv2d_16                                     16   Conv2D          393232    1600     I: conv2d_15_output                                     int8(1x16x16x96) (21)      
                                                                                             S: conv2d_16_scratch0                                                              
                                                                                             W: conv2d_16_weights                                    int8(16x1x1x96) (27)       
                                                                                             W: conv2d_16_bias                                       int32(16) (24)             
                                                                                             O: conv2d_16_output                                     int8(1x16x16x16) (25)      
------ --------------------------------------------- ---- --------------- --------- -------- ------------------------------------------------------- -------------------------- 
18     eltwise_17                                    17   Eltwise/add     4096      0        I: conv2d_13_output                                     int8(1x16x16x16) (13)      
                                                                                             I: conv2d_16_output                                     int8(1x16x16x16) (13)      
                                                                                             O: eltwise_17_output                                    int8(1x16x16x16) (214)     
------ --------------------------------------------- ---- --------------- --------- -------- ------------------------------------------------------- -------------------------- 
19     conv2d_18                                     18   Conv2D          393312    1920     I: eltwise_17_output                                    int8(1x16x16x16) (214)     
                                                                                             S: conv2d_18_scratch0                                                              
                                                                                             W: conv2d_18_weights                                    int8(96x1x1x16) (31)       
                                                                                             W: conv2d_18_bias                                       int32(96) (28)             
                                                                                             O: conv2d_18_output                                     int8(1x16x16x96) (29)      
------ --------------------------------------------- ---- --------------- --------- -------- ------------------------------------------------------- -------------------------- 
20     conv2d_19                                     19   Conv2D          221280    1248     I: conv2d_18_output                                     int8(1x16x16x96) (29)      
                                                                                             S: conv2d_19_scratch0                                                              
                                                                                             W: conv2d_19_weights                                    int8(1x3x3x96) (35)        
                                                                                             W: conv2d_19_bias                                       int32(96) (32)             
                                                                                             O: conv2d_19_output                                     int8(1x16x16x96) (33)      
------ --------------------------------------------- ---- --------------- --------- -------- ------------------------------------------------------- -------------------------- 
21     conv2d_20                                     20   Conv2D          393232    1600     I: conv2d_19_output                                     int8(1x16x16x96) (33)      
                                                                                             S: conv2d_20_scratch0                                                              
                                                                                             W: conv2d_20_weights                                    int8(16x1x1x96) (43)       
                                                                                             W: conv2d_20_bias                                       int32(16) (40)             
                                                                                             O: conv2d_20_output                                     int8(1x16x16x16) (41)      
------ --------------------------------------------- ---- --------------- --------- -------- ------------------------------------------------------- -------------------------- 
22     eltwise_21                                    21   Eltwise/add     4096      0        I: eltwise_17_output                                    int8(1x16x16x16) (214)     
                                                                                             I: conv2d_20_output                                     int8(1x16x16x16) (214)     
                                                                                             O: eltwise_21_output                                    int8(1x16x16x16) (215)     
------ --------------------------------------------- ---- --------------- --------- -------- ------------------------------------------------------- -------------------------- 
23     conv2d_22                                     22   Conv2D          393312    1920     I: eltwise_21_output                                    int8(1x16x16x16) (215)     
                                                                                             S: conv2d_22_scratch0                                                              
                                                                                             W: conv2d_22_weights                                    int8(96x1x1x16) (47)       
                                                                                             W: conv2d_22_bias                                       int32(96) (44)             
                                                                                             O: conv2d_22_output                                     int8(1x16x16x96) (45)      
------ --------------------------------------------- ---- --------------- --------- -------- ------------------------------------------------------- -------------------------- 
24     conv2d_23                                     23   Conv2D          55392     1248     I: conv2d_22_output                                     int8(1x16x16x96) (45)      
                                                                                             S: conv2d_23_scratch0                                                              
                                                                                             W: conv2d_23_weights                                    int8(1x3x3x96) (51)        
                                                                                             W: conv2d_23_bias                                       int32(96) (48)             
                                                                                             O: conv2d_23_output                                     int8(1x8x8x96) (49)        
------ --------------------------------------------- ---- --------------- --------- -------- ------------------------------------------------------- -------------------------- 
25     conv2d_24                                     24   Conv2D          147480    2400     I: conv2d_23_output                                     int8(1x8x8x96) (49)        
                                                                                             S: conv2d_24_scratch0                                                              
                                                                                             W: conv2d_24_weights                                    int8(24x1x1x96) (55)       
                                                                                             W: conv2d_24_bias                                       int32(24) (52)             
                                                                                             O: conv2d_24_output                                     int8(1x8x8x24) (53)        
------ --------------------------------------------- ---- --------------- --------- -------- ------------------------------------------------------- -------------------------- 
26     conv2d_25                                     25   Conv2D          221328    4032     I: conv2d_24_output                                     int8(1x8x8x24) (53)        
                                                                                             S: conv2d_25_scratch0                                                              
                                                                                             W: conv2d_25_weights                                    int8(144x1x1x24) (59)      
                                                                                             W: conv2d_25_bias                                       int32(144) (56)            
                                                                                             O: conv2d_25_output                                     int8(1x8x8x144) (57)       
------ --------------------------------------------- ---- --------------- --------- -------- ------------------------------------------------------- -------------------------- 
27     conv2d_26                                     26   Conv2D          83088     1872     I: conv2d_25_output                                     int8(1x8x8x144) (57)       
                                                                                             S: conv2d_26_scratch0                                                              
                                                                                             W: conv2d_26_weights                                    int8(1x3x3x144) (63)       
                                                                                             W: conv2d_26_bias                                       int32(144) (60)            
                                                                                             O: conv2d_26_output                                     int8(1x8x8x144) (61)       
------ --------------------------------------------- ---- --------------- --------- -------- ------------------------------------------------------- -------------------------- 
28     conv2d_27                                     27   Conv2D          221208    3552     I: conv2d_26_output                                     int8(1x8x8x144) (61)       
                                                                                             S: conv2d_27_scratch0                                                              
                                                                                             W: conv2d_27_weights                                    int8(24x1x1x144) (67)      
                                                                                             W: conv2d_27_bias                                       int32(24) (64)             
                                                                                             O: conv2d_27_output                                     int8(1x8x8x24) (65)        
------ --------------------------------------------- ---- --------------- --------- -------- ------------------------------------------------------- -------------------------- 
29     eltwise_28                                    28   Eltwise/add     1536      0        I: conv2d_24_output                                     int8(1x8x8x24) (53)        
                                                                                             I: conv2d_27_output                                     int8(1x8x8x24) (53)        
                                                                                             O: eltwise_28_output                                    int8(1x8x8x24) (216)       
------ --------------------------------------------- ---- --------------- --------- -------- ------------------------------------------------------- -------------------------- 
30     conv2d_29                                     29   Conv2D          221328    4032     I: eltwise_28_output                                    int8(1x8x8x24) (216)       
                                                                                             S: conv2d_29_scratch0                                                              
                                                                                             W: conv2d_29_weights                                    int8(144x1x1x24) (71)      
                                                                                             W: conv2d_29_bias                                       int32(144) (68)            
                                                                                             O: conv2d_29_output                                     int8(1x8x8x144) (69)       
------ --------------------------------------------- ---- --------------- --------- -------- ------------------------------------------------------- -------------------------- 
31     conv2d_30                                     30   Conv2D          83088     1872     I: conv2d_29_output                                     int8(1x8x8x144) (69)       
                                                                                             S: conv2d_30_scratch0                                                              
                                                                                             W: conv2d_30_weights                                    int8(1x3x3x144) (79)       
                                                                                             W: conv2d_30_bias                                       int32(144) (76)            
                                                                                             O: conv2d_30_output                                     int8(1x8x8x144) (77)       
------ --------------------------------------------- ---- --------------- --------- -------- ------------------------------------------------------- -------------------------- 
32     conv2d_31                                     31   Conv2D          221208    3552     I: conv2d_30_output                                     int8(1x8x8x144) (77)       
                                                                                             S: conv2d_31_scratch0                                                              
                                                                                             W: conv2d_31_weights                                    int8(24x1x1x144) (83)      
                                                                                             W: conv2d_31_bias                                       int32(24) (80)             
                                                                                             O: conv2d_31_output                                     int8(1x8x8x24) (81)        
------ --------------------------------------------- ---- --------------- --------- -------- ------------------------------------------------------- -------------------------- 
33     eltwise_32                                    32   Eltwise/add     1536      0        I: eltwise_28_output                                    int8(1x8x8x24) (216)       
                                                                                             I: conv2d_31_output                                     int8(1x8x8x24) (216)       
                                                                                             O: eltwise_32_output                                    int8(1x8x8x24) (217)       
------ --------------------------------------------- ---- --------------- --------- -------- ------------------------------------------------------- -------------------------- 
34     conv2d_33                                     33   Conv2D          221328    4032     I: eltwise_32_output                                    int8(1x8x8x24) (217)       
                                                                                             S: conv2d_33_scratch0                                                              
                                                                                             W: conv2d_33_weights                                    int8(144x1x1x24) (87)      
                                                                                             W: conv2d_33_bias                                       int32(144) (84)            
                                                                                             O: conv2d_33_output                                     int8(1x8x8x144) (85)       
------ --------------------------------------------- ---- --------------- --------- -------- ------------------------------------------------------- -------------------------- 
35     conv2d_34                                     34   Conv2D          83088     1872     I: conv2d_33_output                                     int8(1x8x8x144) (85)       
                                                                                             S: conv2d_34_scratch0                                                              
                                                                                             W: conv2d_34_weights                                    int8(1x3x3x144) (91)       
                                                                                             W: conv2d_34_bias                                       int32(144) (88)            
                                                                                             O: conv2d_34_output                                     int8(1x8x8x144) (89)       
------ --------------------------------------------- ---- --------------- --------- -------- ------------------------------------------------------- -------------------------- 
36     conv2d_35                                     35   Conv2D          221208    3552     I: conv2d_34_output                                     int8(1x8x8x144) (89)       
                                                                                             S: conv2d_35_scratch0                                                              
                                                                                             W: conv2d_35_weights                                    int8(24x1x1x144) (95)      
                                                                                             W: conv2d_35_bias                                       int32(24) (92)             
                                                                                             O: conv2d_35_output                                     int8(1x8x8x24) (93)        
------ --------------------------------------------- ---- --------------- --------- -------- ------------------------------------------------------- -------------------------- 
37     eltwise_36                                    36   Eltwise/add     1536      0        I: eltwise_32_output                                    int8(1x8x8x24) (217)       
                                                                                             I: conv2d_35_output                                     int8(1x8x8x24) (217)       
                                                                                             O: eltwise_36_output                                    int8(1x8x8x24) (218)       
------ --------------------------------------------- ---- --------------- --------- -------- ------------------------------------------------------- -------------------------- 
38     conv2d_37                                     37   Conv2D          221328    4032     I: eltwise_36_output                                    int8(1x8x8x24) (218)       
                                                                                             S: conv2d_37_scratch0                                                              
                                                                                             W: conv2d_37_weights                                    int8(144x1x1x24) (99)      
                                                                                             W: conv2d_37_bias                                       int32(144) (96)            
                                                                                             O: conv2d_37_output                                     int8(1x8x8x144) (97)       
------ --------------------------------------------- ---- --------------- --------- -------- ------------------------------------------------------- -------------------------- 
39     conv2d_38                                     38   Conv2D          83088     1872     I: conv2d_37_output                                     int8(1x8x8x144) (97)       
                                                                                             S: conv2d_38_scratch0                                                              
                                                                                             W: conv2d_38_weights                                    int8(1x3x3x144) (103)      
                                                                                             W: conv2d_38_bias                                       int32(144) (100)           
                                                                                             O: conv2d_38_output                                     int8(1x8x8x144) (101)      
------ --------------------------------------------- ---- --------------- --------- -------- ------------------------------------------------------- -------------------------- 
40     conv2d_39                                     39   Conv2D          294944    4736     I: conv2d_38_output                                     int8(1x8x8x144) (101)      
                                                                                             S: conv2d_39_scratch0                                                              
                                                                                             W: conv2d_39_weights                                    int8(32x1x1x144) (107)     
                                                                                             W: conv2d_39_bias                                       int32(32) (104)            
                                                                                             O: conv2d_39_output                                     int8(1x8x8x32) (105)       
------ --------------------------------------------- ---- --------------- --------- -------- ------------------------------------------------------- -------------------------- 
41     conv2d_40                                     40   Conv2D          393408    6912     I: conv2d_39_output                                     int8(1x8x8x32) (105)       
                                                                                             S: conv2d_40_scratch0                                                              
                                                                                             W: conv2d_40_weights                                    int8(192x1x1x32) (115)     
                                                                                             W: conv2d_40_bias                                       int32(192) (112)           
                                                                                             O: conv2d_40_output                                     int8(1x8x8x192) (113)      
------ --------------------------------------------- ---- --------------- --------- -------- ------------------------------------------------------- -------------------------- 
42     conv2d_41                                     41   Conv2D          110784    2496     I: conv2d_40_output                                     int8(1x8x8x192) (113)      
                                                                                             S: conv2d_41_scratch0                                                              
                                                                                             W: conv2d_41_weights                                    int8(1x3x3x192) (119)      
                                                                                             W: conv2d_41_bias                                       int32(192) (116)           
                                                                                             O: conv2d_41_output                                     int8(1x8x8x192) (117)      
------ --------------------------------------------- ---- --------------- --------- -------- ------------------------------------------------------- -------------------------- 
43     conv2d_42                                     42   Conv2D          393248    6272     I: conv2d_41_output                                     int8(1x8x8x192) (117)      
                                                                                             S: conv2d_42_scratch0                                                              
                                                                                             W: conv2d_42_weights                                    int8(32x1x1x192) (123)     
                                                                                             W: conv2d_42_bias                                       int32(32) (120)            
                                                                                             O: conv2d_42_output                                     int8(1x8x8x32) (121)       
------ --------------------------------------------- ---- --------------- --------- -------- ------------------------------------------------------- -------------------------- 
44     eltwise_43                                    43   Eltwise/add     2048      0        I: conv2d_39_output                                     int8(1x8x8x32) (105)       
                                                                                             I: conv2d_42_output                                     int8(1x8x8x32) (105)       
                                                                                             O: eltwise_43_output                                    int8(1x8x8x32) (219)       
------ --------------------------------------------- ---- --------------- --------- -------- ------------------------------------------------------- -------------------------- 
45     conv2d_44                                     44   Conv2D          393408    6912     I: eltwise_43_output                                    int8(1x8x8x32) (219)       
                                                                                             S: conv2d_44_scratch0                                                              
                                                                                             W: conv2d_44_weights                                    int8(192x1x1x32) (127)     
                                                                                             W: conv2d_44_bias                                       int32(192) (124)           
                                                                                             O: conv2d_44_output                                     int8(1x8x8x192) (125)      
------ --------------------------------------------- ---- --------------- --------- -------- ------------------------------------------------------- -------------------------- 
46     conv2d_45                                     45   Conv2D          110784    2496     I: conv2d_44_output                                     int8(1x8x8x192) (125)      
                                                                                             S: conv2d_45_scratch0                                                              
                                                                                             W: conv2d_45_weights                                    int8(1x3x3x192) (131)      
                                                                                             W: conv2d_45_bias                                       int32(192) (128)           
                                                                                             O: conv2d_45_output                                     int8(1x8x8x192) (129)      
------ --------------------------------------------- ---- --------------- --------- -------- ------------------------------------------------------- -------------------------- 
47     conv2d_46                                     46   Conv2D          393248    6272     I: conv2d_45_output                                     int8(1x8x8x192) (129)      
                                                                                             S: conv2d_46_scratch0                                                              
                                                                                             W: conv2d_46_weights                                    int8(32x1x1x192) (135)     
                                                                                             W: conv2d_46_bias                                       int32(32) (132)            
                                                                                             O: conv2d_46_output                                     int8(1x8x8x32) (133)       
------ --------------------------------------------- ---- --------------- --------- -------- ------------------------------------------------------- -------------------------- 
48     eltwise_47                                    47   Eltwise/add     2048      0        I: eltwise_43_output                                    int8(1x8x8x32) (219)       
                                                                                             I: conv2d_46_output                                     int8(1x8x8x32) (219)       
                                                                                             O: eltwise_47_output                                    int8(1x8x8x32) (220)       
------ --------------------------------------------- ---- --------------- --------- -------- ------------------------------------------------------- -------------------------- 
49     conv2d_48                                     48   Conv2D          393408    6912     I: eltwise_47_output                                    int8(1x8x8x32) (220)       
                                                                                             S: conv2d_48_scratch0                                                              
                                                                                             W: conv2d_48_weights                                    int8(192x1x1x32) (139)     
                                                                                             W: conv2d_48_bias                                       int32(192) (136)           
                                                                                             O: conv2d_48_output                                     int8(1x8x8x192) (137)      
------ --------------------------------------------- ---- --------------- --------- -------- ------------------------------------------------------- -------------------------- 
50     conv2d_49                                     49   Conv2D          27840     2496     I: conv2d_48_output                                     int8(1x8x8x192) (137)      
                                                                                             S: conv2d_49_scratch0                                                              
                                                                                             W: conv2d_49_weights                                    int8(1x3x3x192) (143)      
                                                                                             W: conv2d_49_bias                                       int32(192) (140)           
                                                                                             O: conv2d_49_output                                     int8(1x4x4x192) (141)      
------ --------------------------------------------- ---- --------------- --------- -------- ------------------------------------------------------- -------------------------- 
51     conv2d_50                                     50   Conv2D          172088    10976    I: conv2d_49_output                                     int8(1x4x4x192) (141)      
                                                                                             S: conv2d_50_scratch0                                                              
                                                                                             W: conv2d_50_weights                                    int8(56x1x1x192) (151)     
                                                                                             W: conv2d_50_bias                                       int32(56) (148)            
                                                                                             O: conv2d_50_output                                     int8(1x4x4x56) (149)       
------ --------------------------------------------- ---- --------------- --------- -------- ------------------------------------------------------- -------------------------- 
52     conv2d_51                                     51   Conv2D          301392    20160    I: conv2d_50_output                                     int8(1x4x4x56) (149)       
                                                                                             S: conv2d_51_scratch0                                                              
                                                                                             W: conv2d_51_weights                                    int8(336x1x1x56) (155)     
                                                                                             W: conv2d_51_bias                                       int32(336) (152)           
                                                                                             O: conv2d_51_output                                     int8(1x4x4x336) (153)      
------ --------------------------------------------- ---- --------------- --------- -------- ------------------------------------------------------- -------------------------- 
53     conv2d_52                                     52   Conv2D          48720     4368     I: conv2d_51_output                                     int8(1x4x4x336) (153)      
                                                                                             S: conv2d_52_scratch0                                                              
                                                                                             W: conv2d_52_weights                                    int8(1x3x3x336) (159)      
                                                                                             W: conv2d_52_bias                                       int32(336) (156)           
                                                                                             O: conv2d_52_output                                     int8(1x4x4x336) (157)      
------ --------------------------------------------- ---- --------------- --------- -------- ------------------------------------------------------- -------------------------- 
54     conv2d_53                                     53   Conv2D          301112    19040    I: conv2d_52_output                                     int8(1x4x4x336) (157)      
                                                                                             S: conv2d_53_scratch0                                                              
                                                                                             W: conv2d_53_weights                                    int8(56x1x1x336) (163)     
                                                                                             W: conv2d_53_bias                                       int32(56) (160)            
                                                                                             O: conv2d_53_output                                     int8(1x4x4x56) (161)       
------ --------------------------------------------- ---- --------------- --------- -------- ------------------------------------------------------- -------------------------- 
55     eltwise_54                                    54   Eltwise/add     896       0        I: conv2d_50_output                                     int8(1x4x4x56) (149)       
                                                                                             I: conv2d_53_output                                     int8(1x4x4x56) (149)       
                                                                                             O: eltwise_54_output                                    int8(1x4x4x56) (221)       
------ --------------------------------------------- ---- --------------- --------- -------- ------------------------------------------------------- -------------------------- 
56     conv2d_55                                     55   Conv2D          301392    20160    I: eltwise_54_output                                    int8(1x4x4x56) (221)       
                                                                                             S: conv2d_55_scratch0                                                              
                                                                                             W: conv2d_55_weights                                    int8(336x1x1x56) (167)     
                                                                                             W: conv2d_55_bias                                       int32(336) (164)           
                                                                                             O: conv2d_55_output                                     int8(1x4x4x336) (165)      
------ --------------------------------------------- ---- --------------- --------- -------- ------------------------------------------------------- -------------------------- 
57     conv2d_56                                     56   Conv2D          48720     4368     I: conv2d_55_output                                     int8(1x4x4x336) (165)      
                                                                                             S: conv2d_56_scratch0                                                              
                                                                                             W: conv2d_56_weights                                    int8(1x3x3x336) (171)      
                                                                                             W: conv2d_56_bias                                       int32(336) (168)           
                                                                                             O: conv2d_56_output                                     int8(1x4x4x336) (169)      
------ --------------------------------------------- ---- --------------- --------- -------- ------------------------------------------------------- -------------------------- 
58     conv2d_57                                     57   Conv2D          301112    19040    I: conv2d_56_output                                     int8(1x4x4x336) (169)      
                                                                                             S: conv2d_57_scratch0                                                              
                                                                                             W: conv2d_57_weights                                    int8(56x1x1x336) (175)     
                                                                                             W: conv2d_57_bias                                       int32(56) (172)            
                                                                                             O: conv2d_57_output                                     int8(1x4x4x56) (173)       
------ --------------------------------------------- ---- --------------- --------- -------- ------------------------------------------------------- -------------------------- 
59     eltwise_58                                    58   Eltwise/add     896       0        I: eltwise_54_output                                    int8(1x4x4x56) (221)       
                                                                                             I: conv2d_57_output                                     int8(1x4x4x56) (221)       
                                                                                             O: eltwise_58_output                                    int8(1x4x4x56) (222)       
------ --------------------------------------------- ---- --------------- --------- -------- ------------------------------------------------------- -------------------------- 
60     conv2d_59                                     59   Conv2D          301392    20160    I: eltwise_58_output                                    int8(1x4x4x56) (222)       
                                                                                             S: conv2d_59_scratch0                                                              
                                                                                             W: conv2d_59_weights                                    int8(336x1x1x56) (179)     
                                                                                             W: conv2d_59_bias                                       int32(336) (176)           
                                                                                             O: conv2d_59_output                                     int8(1x4x4x336) (177)      
------ --------------------------------------------- ---- --------------- --------- -------- ------------------------------------------------------- -------------------------- 
61     conv2d_60                                     60   Conv2D          48720     4368     I: conv2d_59_output                                     int8(1x4x4x336) (177)      
                                                                                             S: conv2d_60_scratch0                                                              
                                                                                             W: conv2d_60_weights                                    int8(1x3x3x336) (187)      
                                                                                             W: conv2d_60_bias                                       int32(336) (184)           
                                                                                             O: conv2d_60_output                                     int8(1x4x4x336) (185)      
------ --------------------------------------------- ---- --------------- --------- -------- ------------------------------------------------------- -------------------------- 
62     conv2d_61                                     61   Conv2D          602224    38080    I: conv2d_60_output                                     int8(1x4x4x336) (185)      
                                                                                             S: conv2d_61_scratch0                                                              
                                                                                             W: conv2d_61_weights                                    int8(112x1x1x336) (191)    
                                                                                             W: conv2d_61_bias                                       int32(112) (188)           
                                                                                             O: conv2d_61_output                                     int8(1x4x4x112) (189)      
------ --------------------------------------------- ---- --------------- --------- -------- ------------------------------------------------------- -------------------------- 
63     conv2d_62                                     62   Conv2D          2295040   148480   I: conv2d_61_output                                     int8(1x4x4x112) (189)      
                                                                                             S: conv2d_62_scratch0                                                              
                                                                                             W: conv2d_62_weights                                    int8(1280x1x1x112) (195)   
                                                                                             W: conv2d_62_bias                                       int32(1280) (192)          
                                                                                             O: conv2d_62_output                                     int8(1x4x4x1280) (193)     
------ --------------------------------------------- ---- --------------- --------- -------- ------------------------------------------------------- -------------------------- 
64     pool_63                                       63   Pool            20480     0        I: conv2d_62_output                                     int8(1x4x4x1280) (193)     
                                                                                             O: pool_63_output                                       int8(1x1x1x1280) (229)     
------ --------------------------------------------- ---- --------------- --------- -------- ------------------------------------------------------- -------------------------- 
65     gemm_64                                       64   Dense           3843      3852     I: pool_63_output                                       int8(1x1x1x1280) (229)     
                                                                                             S: gemm_64_scratch0                                                                
                                                                                             W: gemm_64_weights                                      int8(3x1280) (226)         
                                                                                             W: gemm_64_bias                                         int32(3) (223)             
                                                                                             O: gemm_64_output                                       int8(1x3) (224)            
------ --------------------------------------------- ---- --------------- --------- -------- ------------------------------------------------------- -------------------------- 
66     nl_65                                         65   Nonlinearity    45        0        I: gemm_64_output                                       int8(1x3) (224)            
                                                                                             S: nl_65_scratch0                                                                  
                                                                                             O: nl_65_output                                         int8(1x3) (227)            
------ --------------------------------------------- ---- --------------- --------- -------- ------------------------------------------------------- -------------------------- 
67     conversion_66                                 66   Conversion      6         0        I: nl_65_output                                         int8(1x3) (227)            
                                                                                             O: conversion_66_output                                 f32(1x3) (212)             
------ --------------------------------------------- ---- --------------- --------- -------- ------------------------------------------------------- -------------------------- 



Number of operations per c-layer
------- ------ ---------------------------------------------- ------------ ------------- 
c_id    m_id   name (type)                                             #op          type 
------- ------ ---------------------------------------------- ------------ ------------- 
0       0      serving_default_in..conversion (Conversion)          32,768    smul_u8_s8 
1       0      conv2d_0 (Conv2D_PW)                                 49,155    smul_s8_s8 
2       1      conv2d_1 (Conv2D)                                 1,769,488    smul_s8_s8 
3       2      conv2d_2 (Conv2D_DW)                                589,840    smul_s8_s8 
4       3      conv2d_3 (Conv2D_PW)                                524,296    smul_s8_s8 
5       4      conv2d_4 (Conv2D_PW)                              1,572,912    smul_s8_s8 
6       5      conv2d_5 (Conv2D_DW)                                442,416    smul_s8_s8 
7       6      conv2d_6 (Conv2D_PW)                                393,224    smul_s8_s8 
8       7      conv2d_7 (Conv2D_PW)                                393,264    smul_s8_s8 
9       8      conv2d_8 (Conv2D_DW)                                442,416    smul_s8_s8 
10      9      conv2d_9 (Conv2D_PW)                                393,224    smul_s8_s8 
11      10     eltwise_10 (Eltwise/add)                              8,192      op_s8_s8 
12      11     conv2d_11 (Conv2D_PW)                               393,264    smul_s8_s8 
13      12     conv2d_12 (Conv2D_DW)                               110,640    smul_s8_s8 
14      13     conv2d_13 (Conv2D_PW)                               196,624    smul_s8_s8 
15      14     conv2d_14 (Conv2D_PW)                               393,312    smul_s8_s8 
16      15     conv2d_15 (Conv2D_DW)                               221,280    smul_s8_s8 
17      16     conv2d_16 (Conv2D_PW)                               393,232    smul_s8_s8 
18      17     eltwise_17 (Eltwise/add)                              4,096      op_s8_s8 
19      18     conv2d_18 (Conv2D_PW)                               393,312    smul_s8_s8 
20      19     conv2d_19 (Conv2D_DW)                               221,280    smul_s8_s8 
21      20     conv2d_20 (Conv2D_PW)                               393,232    smul_s8_s8 
22      21     eltwise_21 (Eltwise/add)                              4,096      op_s8_s8 
23      22     conv2d_22 (Conv2D_PW)                               393,312    smul_s8_s8 
24      23     conv2d_23 (Conv2D_DW)                                55,392    smul_s8_s8 
25      24     conv2d_24 (Conv2D_PW)                               147,480    smul_s8_s8 
26      25     conv2d_25 (Conv2D_PW)                               221,328    smul_s8_s8 
27      26     conv2d_26 (Conv2D_DW)                                83,088    smul_s8_s8 
28      27     conv2d_27 (Conv2D_PW)                               221,208    smul_s8_s8 
29      28     eltwise_28 (Eltwise/add)                              1,536      op_s8_s8 
30      29     conv2d_29 (Conv2D_PW)                               221,328    smul_s8_s8 
31      30     conv2d_30 (Conv2D_DW)                                83,088    smul_s8_s8 
32      31     conv2d_31 (Conv2D_PW)                               221,208    smul_s8_s8 
33      32     eltwise_32 (Eltwise/add)                              1,536      op_s8_s8 
34      33     conv2d_33 (Conv2D_PW)                               221,328    smul_s8_s8 
35      34     conv2d_34 (Conv2D_DW)                                83,088    smul_s8_s8 
36      35     conv2d_35 (Conv2D_PW)                               221,208    smul_s8_s8 
37      36     eltwise_36 (Eltwise/add)                              1,536      op_s8_s8 
38      37     conv2d_37 (Conv2D_PW)                               221,328    smul_s8_s8 
39      38     conv2d_38 (Conv2D_DW)                                83,088    smul_s8_s8 
40      39     conv2d_39 (Conv2D_PW)                               294,944    smul_s8_s8 
41      40     conv2d_40 (Conv2D_PW)                               393,408    smul_s8_s8 
42      41     conv2d_41 (Conv2D_DW)                               110,784    smul_s8_s8 
43      42     conv2d_42 (Conv2D_PW)                               393,248    smul_s8_s8 
44      43     eltwise_43 (Eltwise/add)                              2,048      op_s8_s8 
45      44     conv2d_44 (Conv2D_PW)                               393,408    smul_s8_s8 
46      45     conv2d_45 (Conv2D_DW)                               110,784    smul_s8_s8 
47      46     conv2d_46 (Conv2D_PW)                               393,248    smul_s8_s8 
48      47     eltwise_47 (Eltwise/add)                              2,048      op_s8_s8 
49      48     conv2d_48 (Conv2D_PW)                               393,408    smul_s8_s8 
50      49     conv2d_49 (Conv2D_DW)                                27,840    smul_s8_s8 
51      50     conv2d_50 (Conv2D_PW)                               172,088    smul_s8_s8 
52      51     conv2d_51 (Conv2D_PW)                               301,392    smul_s8_s8 
53      52     conv2d_52 (Conv2D_DW)                                48,720    smul_s8_s8 
54      53     conv2d_53 (Conv2D_PW)                               301,112    smul_s8_s8 
55      54     eltwise_54 (Eltwise/add)                                896      op_s8_s8 
56      55     conv2d_55 (Conv2D_PW)                               301,392    smul_s8_s8 
57      56     conv2d_56 (Conv2D_DW)                                48,720    smul_s8_s8 
58      57     conv2d_57 (Conv2D_PW)                               301,112    smul_s8_s8 
59      58     eltwise_58 (Eltwise/add)                                896      op_s8_s8 
60      59     conv2d_59 (Conv2D_PW)                               301,392    smul_s8_s8 
61      60     conv2d_60 (Conv2D_DW)                                48,720    smul_s8_s8 
62      61     conv2d_61 (Conv2D_PW)                               602,224    smul_s8_s8 
63      62     conv2d_62 (Conv2D_PW)                             2,295,040    smul_s8_s8 
64      63     pool_63 (Pool_Avg)                                   20,480    smul_s8_s8 
65      64     gemm_64 (Dense)                                       3,843    smul_s8_s8 
66      65     nl_65 (Nonlinearity)                                     45      op_s8_s8 
67      66     conversion_66 (Conversion)                                6   smul_s8_f32 
------- ------ ---------------------------------------------- ------------ ------------- 
total                                                           19,080,889 

Number of operation types
---------------- ------------ ----------- 
operation type              #           % 
---------------- ------------ ----------- 
smul_u8_s8             32,768        0.2% 
smul_s8_s8         19,021,190       99.7% 
op_s8_s8               26,925        0.1% 
smul_s8_f32                 6        0.0% 

Complexity report (model)
------ -------------------------------- ------------------------- ------------------------- -------- 
m_id   name                             c_macc                    c_rom                     c_id     
------ -------------------------------- ------------------------- ------------------------- -------- 
0      serving_default_input_layer_50   |                  0.4%   |                  0.0%   [0, 1]   
1      conv2d_1                         ||||||||||||       9.3%   |                  0.1%   [2]      
2      conv2d_2                         ||||               3.1%   |                  0.1%   [3]      
3      conv2d_3                         ||||               2.7%   |                  0.0%   [4]      
4      conv2d_4                         |||||||||||        8.2%   |                  0.1%   [5]      
5      conv2d_5                         |||                2.3%   |                  0.2%   [6]      
6      conv2d_6                         |||                2.1%   |                  0.1%   [7]      
7      conv2d_7                         |||                2.1%   |                  0.1%   [8]      
8      conv2d_8                         |||                2.3%   |                  0.2%   [9]      
9      conv2d_9                         |||                2.1%   |                  0.1%   [10]     
10     eltwise_10                       |                  0.0%   |                  0.0%   [11]     
11     conv2d_11                        |||                2.1%   |                  0.1%   [12]     
12     conv2d_12                        |                  0.6%   |                  0.2%   [13]     
13     conv2d_13                        ||                 1.0%   |                  0.2%   [14]     
14     conv2d_14                        |||                2.1%   |                  0.5%   [15]     
15     conv2d_15                        ||                 1.2%   |                  0.3%   [16]     
16     conv2d_16                        |||                2.1%   |                  0.4%   [17]     
17     eltwise_17                       |                  0.0%   |                  0.0%   [18]     
18     conv2d_18                        |||                2.1%   |                  0.5%   [19]     
19     conv2d_19                        ||                 1.2%   |                  0.3%   [20]     
20     conv2d_20                        |||                2.1%   |                  0.4%   [21]     
21     eltwise_21                       |                  0.0%   |                  0.0%   [22]     
22     conv2d_22                        |||                2.1%   |                  0.5%   [23]     
23     conv2d_23                        |                  0.3%   |                  0.3%   [24]     
24     conv2d_24                        |                  0.8%   |                  0.6%   [25]     
25     conv2d_25                        ||                 1.2%   |                  1.0%   [26]     
26     conv2d_26                        |                  0.4%   |                  0.5%   [27]     
27     conv2d_27                        ||                 1.2%   |                  0.9%   [28]     
28     eltwise_28                       |                  0.0%   |                  0.0%   [29]     
29     conv2d_29                        ||                 1.2%   |                  1.0%   [30]     
30     conv2d_30                        |                  0.4%   |                  0.5%   [31]     
31     conv2d_31                        ||                 1.2%   |                  0.9%   [32]     
32     eltwise_32                       |                  0.0%   |                  0.0%   [33]     
33     conv2d_33                        ||                 1.2%   |                  1.0%   [34]     
34     conv2d_34                        |                  0.4%   |                  0.5%   [35]     
35     conv2d_35                        ||                 1.2%   |                  0.9%   [36]     
36     eltwise_36                       |                  0.0%   |                  0.0%   [37]     
37     conv2d_37                        ||                 1.2%   |                  1.0%   [38]     
38     conv2d_38                        |                  0.4%   |                  0.5%   [39]     
39     conv2d_39                        ||                 1.5%   |                  1.1%   [40]     
40     conv2d_40                        |||                2.1%   |                  1.7%   [41]     
41     conv2d_41                        |                  0.6%   |                  0.6%   [42]     
42     conv2d_42                        |||                2.1%   |                  1.5%   [43]     
43     eltwise_43                       |                  0.0%   |                  0.0%   [44]     
44     conv2d_44                        |||                2.1%   |                  1.7%   [45]     
45     conv2d_45                        |                  0.6%   |                  0.6%   [46]     
46     conv2d_46                        |||                2.1%   |                  1.5%   [47]     
47     eltwise_47                       |                  0.0%   |                  0.0%   [48]     
48     conv2d_48                        |||                2.1%   |                  1.7%   [49]     
49     conv2d_49                        |                  0.1%   |                  0.6%   [50]     
50     conv2d_50                        ||                 0.9%   ||                 2.7%   [51]     
51     conv2d_51                        ||                 1.6%   |||                4.9%   [52]     
52     conv2d_52                        |                  0.3%   |                  1.1%   [53]     
53     conv2d_53                        ||                 1.6%   ||                 4.6%   [54]     
54     eltwise_54                       |                  0.0%   |                  0.0%   [55]     
55     conv2d_55                        ||                 1.6%   |||                4.9%   [56]     
56     conv2d_56                        |                  0.3%   |                  1.1%   [57]     
57     conv2d_57                        ||                 1.6%   ||                 4.6%   [58]     
58     eltwise_58                       |                  0.0%   |                  0.0%   [59]     
59     conv2d_59                        ||                 1.6%   |||                4.9%   [60]     
60     conv2d_60                        |                  0.3%   |                  1.1%   [61]     
61     conv2d_61                        ||||               3.2%   ||||               9.2%   [62]     
62     conv2d_62                        ||||||||||||||||  12.0%   ||||||||||||||||  35.9%   [63]     
63     pool_63                          |                  0.1%   |                  0.0%   [64]     
64     tfl_pseudo_qconst1               |                  0.0%   |                  0.9%   [65]     
65     nl_65                            |                  0.0%   |                  0.0%   [66]     
66     conversion_66                    |                  0.0%   |                  0.0%   [67]     
------ -------------------------------- ------------------------- ------------------------- -------- 
macc=19,080,889 weights=414,076 act=230,116 ram_io=0
 
 Requested memory size by section - "stm32h7" target
 ------------------------------ -------- --------- ------- --------- 
 module                             text    rodata    data       bss 
 ------------------------------ -------- --------- ------- --------- 
 network.o                        11,234    28,711   3,760   230,220 
 NetworkRuntime1200_CM7_GCC.a     20,544         0       0         0 
 lib (toolchain)*                      0         0       0         0 
 ------------------------------ -------- --------- ------- --------- 
 RT total**                       31,778    28,711   3,760   230,220 
 ------------------------------ -------- --------- ------- --------- 
 weights                               0   414,080       0         0 
 activations                           0         0       0         0 
 states                                0         0       0         0 
 io                                    0         0       0         0 
 ------------------------------ -------- --------- ------- --------- 
 TOTAL                            31,778   442,791   3,760   230,220 
 ------------------------------ -------- --------- ------- --------- 
 *  toolchain objects (libm/libgcc*)
 ** RT AI runtime objects (kernels+infrastructure)
  
  Summary - "stm32h7" target
  ----------------------------------------------------
               FLASH (ro)      %*   RAM (rw)        % 
  ----------------------------------------------------
  RT total         64,249   13.4%    233,980   100.0% 
  ----------------------------------------------------
  TOTAL           478,329            233,980          
  ----------------------------------------------------
  *  rt/total

